provided/nets/lhc_2_20-1-0.1_no_softmax.onnx (onnx, 4279 bytes, 6 tensors)

0.bias f4 [20]
00000000: e5be 413f 3e4d 863f b52c fdbc 5dca 083f
00000010: f080 993e 9151 81be f817 2abe 0000 0000
00000020: 10a9 1b3f 298f 74bf 926d 24bd 99a4 663f
00000030: c6b6 1fbf 22a8 603f 11fb 44be 185e 8ebf
00000040: 8df4 ad3e 0000 0000 31df 843f d1be 3a3e
0.75681907 1.0492322 -0.030905107 0.5343378 0.29981184 -0.25257543 -0.16610706 0.0
0.60804844 -0.95530945 -0.040143557 0.90094906 -0.62388265 0.8775655 -0.19236399 -1.1122465
0.3397564 0.0 1.0380613 0.18236853

2.bias f4 [20]
00000000: e2bc 4d3f b734 793f 42be 9ebf 8583 8f3d
00000010: f870 c7bf 72cf a93f 0000 0000 f6b9 283f
00000020: 1d14 bcbd 0665 6e3f 85ab 743f 9e9c bf3f
00000030: 92eb dbbe 068a 7e3f 0000 0000 dc36 64bf
00000040: cc39 0b40 70f3 053e f0ba 573f 236e 883f
0.8036634 0.9734606 -1.2401812 0.07007507 -1.558135 1.3266432 0.0 0.65908754
-0.09183524 0.931229 0.9557422 1.4969671 -0.42953163 0.9942936 0.0 -0.8914621
2.1754026 0.13081145 0.8426962 1.0658611

4.weight f4 [5, 20]
00000000: 1946 0fbe 0d01 9a3e e052 1d3f c8b7 163e
00000010: fdbe 553f 65d4 edbf c84b a53e c0df f7be
00000020: 5404 78bd f1e2 47be 54d8 873e 17cd ec3e
00000030: 0b74 453f acc6 ed3e 4626 d13e f5da 863e
00000040: d54b b53e be3d c1bf 741c 0fbd 2270 1ebe
00000050: 3862 153f 5cab adbf ee31 25c0 ab7e 70bf
00000060: 368f 68c0 9edc 2f3e db04 00bf c1fb 0abe
00000070: 8dbe 613d 9246 c93e 3328 f43e f00f d4be
00000080: b08c cdbe b598 4d3f d3ca dd3d 17c9 20c0
00000090: f8b1 bc3e ed90 ea3c 7246 e2bc a2e8 a83c
000000a0: 1b3b a9bf 2fd1 3fc0 d01e ee3e 5d4b a8bf
000000b0: 71ef ab3e fd41 cc3d 8d75 8bbc 2402 e83e
000000c0: 125c 8abc 6c04 aabf f92f c1bf e5c2 553f
000000d0: fed3 24be 99e2 b6bf 28a4 2f3f af53 373f
000000e0: c834 8b3e f7cb c43d 76d9 a5bf b37a 2840
000000f0: 7b51 0a3f 7eea 1ec0 c3e6 84be 010c 15c0
00000100: f54d 1abf 31ac 653f 736a 8c3e c907 013f
00000110: d974 913d dc55 4f3f 517a a53e d7d0 40c0
00000120: dd84 0a3f 0139 94bf 9d88 32c0 84d5 bdbe
00000130: bf29 3fc0 4b57 023f ac00 473f 1f0b fabf
00000140: cc91 e03d c183 d83e 7537 00c1 50ce e53e
00000150: 9a74 97c0 95bb 22bf 757b ffbe 9c25 07c0
00000160: b5ad b6bb 0ab3 f1bd 6bc8 a9be 33ca 6c3e
00000170: f0ac 7bbf 9eed db3d 277a b23e 448f 013f
00000180: c14b c13c 9180 723d 7598 f4bd af8b 943e
-0.13991584 0.30078927 0.6145458 0.14718544 0.8349455 -1.8580443 0.3228438 -0.48412895
-0.060551003 -0.19520165 0.26532233 0.4625022 0.7713019 0.46440637 0.40849513 0.26338926
0.35409418 -1.5096967 -0.034939244 -0.15472463 0.58352995 -1.356792 -2.5811725 -0.9394328
-3.633741 0.17174003 -0.5000741 -0.13572599 0.055113364 0.39311653 0.4768692 -0.4141841
-0.401464 0.8031114 0.10829701 -2.5122736 0.3685453 0.02863356 -0.027621482 0.02061874
-1.3221163 -2.9971426 0.46507883 -1.3147999 0.33581117 0.09973524 -0.017023826 0.45314133
-0.016889606 -1.32826 -1.5092765 0.8350051 -0.16096494 -1.4287902 0.6860986 0.71612066
0.27188706 0.09609216 -1.2956989 2.632489 0.5403058 -2.4830623 -0.25957307 -2.3288577
-0.60275203 0.8971587 0.27424964 0.50402504 0.07102365 0.80990386 0.32319883 -3.0127466
0.54108983 -1.1579896 -2.7895882 -0.37076962 -2.986923 0.5091445 0.777354 -1.9534644
0.109653085 0.4228802 -8.013539 0.44883966 -4.7329836 -0.6356748 -0.49898878 -2.1116705
-0.0055749067 -0.11801727 -0.3316072 0.23124008 -0.98310757 0.10738681 0.3485882 0.5060923
0.023595693 0.05920464 -0.11943141 0.2901282

4.bias f4 [5]
00000000: 9665 0e3f 0971 813f 5e0d b03e e44a 6cc0
00000010: a398 063d
0.5562376 1.011262 0.34385198 -3.692071 0.03286041

onnx::Gemm_20 f4 [20, 16]
00000000: 7dfa 923e 7b4f 2e3e 9fc6 0a3f 96d3 583f
00000010: beaa 363f 6b72 48be fa7a 57bd 106d 4f3a
00000020: adeb cbbd 12ed 16bf 33aa 703e 5142 8fbc
00000030: 4cfb 5fbe 941f 75bd c61b 10c0 d707 df3d
00000040: a0af 5dbe 9fe2 d33d 33f7 4b3f cc2c e2be
00000050: 4053 8b3e 5f4f 53be dd53 d6bc 4300 753e
00000060: 5ea7 f03b e9b9 d1be c45d 18be 345d efbe
00000070: 93be b1be 5137 8b3d 6b06 b9bf b883 c03e
00000080: 9883 0d3f 4f66 2c3f dd4e 8dbf 57ac 83bf
00000090: 3507 2abf e3bb da3d 85cb 203e fff1 dabd
000000a0: 22cd 913d e8be 193d db49 543e 927d 5dbe
000000b0: 0dea b23d 3f61 e4be 2ec4 403f 0839 3b3f
000000c0: e02e 5b3f 28c9 4e3f 7a48 c03e 9a56 4dbe
000000d0: 4d69 d13e 23ca be3d faf9 093e 621f d3be
000000e0: d5e0 12be 1bda d0bd 3c28 3e3f 30d2 d8bb
000000f0: acaf 093f d9a4 c0bd f62a 60bf e599 00bf
00000100: d2c9 c53c ef0d 67be 64c6 803f de68 b73f
00000110: 6ec1 203f 8eab 4b3f 025f 90bd d694 09bf
00000120: 3a3d 28be ffee 92be 9707 acbe 8e32 f53e
00000130: f8e4 fabe bb74 773e 94eb 57be 41db b8bd
00000140: 3592 3dbc cb5a c83d a476 1bbf 59c2 88be
00000150: dfed 43bf 58dd 85b8 0415 f8be 3ad6 103e
00000160: 829e a8be 3f92 203f f763 383e 3de5 3ebe
00000170: 9eda 3a3e 1c49 1ebe 841f 0b3f 0e32 833f
00000180: ba20 6abe b12e 5d3d 142f 96bf 7af1 38bf
00000190: 7b97 47bf c694 083e e52a 2f3d 1d8f 983e
000001a0: a497 9cbe 0f2e 143f a79b 75be 9072 1fbf
000001b0: 5b7b 26be 7f7a 3fbe 6da3 9b3e 1175 6e3f
000001c0: 0000 0000 0000 0000 0000 0000 0000 0080
000001d0: 0000 0000 0000 0080 0000 0080 0000 0080
000001e0: 0000 0000 0000 0000 0000 0080 0000 0080
000001f0: 0000 0000 0000 0080 0000 0000 0000 0080
00000200: 2be9 9a3e 11d7 72bc e3d9 3fbf 08be 91bf
00000210: 0f21 96be 61b9 96be a93c 92bd 9cf8 9c3b
00000220: c971 073d af99 343e c078 febc 5f55 333d
00000230: febe 953d 908a edbc 0e79 1f40 059b 26bc
00000240: 787d b9bd 3ccc ebbc 4a49 613f d08d 6140
00000250: 07e0 a43e 74c3 233e 270a 0d3e d9a7 8cbe
00000260: 97cb 9e3b 4b56 1ebd 2c1b 96be ea86 9f3c
00000270: 14be 07be 636b c73d d9d8 a23e cd88 bf3d
00000280: db8a af3e cfd0 e33e a331 63bf e332 583d
00000290: 4bb3 f2bd 2391 a33e 12af 9ebd 8873 c33e
000002a0: 5b6c 37be 2b69 523f 2382 98be 3984 c8bf
000002b0: 0840 29be eec2 0dbe 1543 363f 1eb9 7a3c
000002c0: 4b72 0abf fc8e 77be 29bf ed3e db54 8abf
000002d0: 97d6 b33e 4960 fdbd 1a39 5c3e 66bf 11bf
000002e0: f0aa 52bd 2313 493e 605a 2e3e 660e 343f
000002f0: 5df8 34be b894 22be e163 ba3f 0f38 52bf
00000300: ec0a 98be d471 00be bd96 c5be 9401 843e
00000310: eca0 8e3d 6f79 89bc edb6 933e a8a8 3dbd
00000320: d9b6 d33e e7fc 0c3f fb35 5f3e fe7c b8be
00000330: 06ba e93e 62da ddbe 9025 313f 5709 a53f
00000340: ef6e 2c3e 08a6 8bbc d28f 7f3f 34db 093f
00000350: 85a0 fa3e 3b70 8b3e 4e6b 66bc be07 1cbe
00000360: 8b8d 6cbd f744 c5be 83a4 453e e740 343e
00000370: 9b05 ed3d 2e9b 653e 29b4 b6bf 0139 f2be
00000380: da00 6b3e cbcb 8d3e 558b a43e b6c7 e33d
00000390: bc66 9a3e ff60 19be f6eb 263d ee35 b63d
000003a0: 6367 82bd 516a 2c3e e0a3 0cbe 2c2d 953c
000003b0: c949 0dbd 9742 533d 1b50 4440 f3ea 1cbe
000003c0: b1cd fb3d 6e40 25be 7c22 153f ade4 6c3f
000003d0: c9d8 76be cb22 0d3f 2743 42bf d88b 9b3b
000003e0: 6569 1abf fb94 293d 668d adbe 9378 1e3f
000003f0: 122b 13bf 1a38 153f e205 523f aeb5 51bf
0.28706732 0.17022507 0.5420932 0.84697855 0.7135428 -0.19574897 -0.052607514 0.0007912675
-0.09957061 -0.5895549 0.23502426 -0.017487677 -0.21873206 -0.05984457 -2.2516952 0.10890167
-0.21649027 0.10345959 0.7967407 -0.44174802 0.27211952 -0.20635746 -0.026163036 0.23925881
0.0073441705 -0.4096215 -0.14879519 -0.46750796 -0.3471571 0.0679766 -1.4455084 0.37600493
0.5527892 0.6734361 -1.1039692 -1.0286969 -0.6641725 0.10680368 0.15702637 -0.10690688
0.07119204 0.037535578 0.20731299 -0.21629933 0.08736048 -0.44605443 0.75299346 0.731339
0.856184 0.8077569 0.37555295 -0.20052567 0.4090065 0.09315898 0.13474265 -0.4123488
-0.14343579 -0.1019785 0.7428014 -0.006616853 0.5378368 -0.09406442 -0.87565553 -0.50234824
0.024144087 -0.22563909 1.0060544 1.4328878 0.6279515 0.79558647 -0.07049371 -0.5374273
-0.16429606 -0.28697965 -0.3359954 0.47890133 -0.49002814 0.24165623 -0.2108596 -0.09026194
-0.011570503 0.097829424 -0.60727906 -0.26710775 -0.7653484 -6.383163e-05 -0.48453534 0.14144221
-0.32933432 0.62723154 0.18006884 -0.18642135 0.18247458 -0.15457577 0.54344964 1.024965
-0.22864047 0.053999607 -1.1733117 -0.72243464 -0.77965516 0.13338003 0.042765517 0.29796687
-0.30584443 0.5788278 -0.23985158 -0.62284184 -0.16257994 -0.18699072 0.3039812 0.9314738
0.0 0.0 0.0 -0.0 0.0 -0.0 -0.0 -0.0
0.0 0.0 -0.0 -0.0 0.0 -0.0 0.0 -0.0
0.30256018 -0.014821784 -0.74941844 -1.1386118 -0.29322097 -0.29438308 -0.07140476 0.0047903787
0.0330675 0.1763675 -0.031063437 0.043782588 0.073118195 -0.028996736 2.4917636 -0.0101687955
-0.090571344 -0.02878391 0.88002455 3.5242805 0.3220217 0.15992528 0.13773404 -0.27471808
0.004846047 -0.038656514 -0.29317605 0.019473512 -0.13256103 0.09737279 0.31806067 0.093522646
0.34285626 0.44495246 -0.88747615 0.052782904 -0.11850604 0.31946668 -0.07748236 0.3817408
-0.17912428 0.82191724 -0.29786786 -1.5665351 -0.16528332 -0.13843891 0.7119611 0.015302924
-0.5408065 -0.24175638 0.46434906 -1.0807146 0.35124657 -0.123718806 0.21506158 -0.56932676
-0.05143255 0.19636206 0.17026663 0.7033447 -0.17672868 -0.15877044 1.4561731 -0.8211679
-0.29695833 -0.12543422 -0.38591567 0.25782454 0.06964287 -0.016781537 0.288505 -0.04630342
0.4135044 0.550734 0.21797936 -0.3603286 0.45649737 -0.43330675 0.6919794 1.2893475
0.16839193 -0.017046943 0.9982883 0.538501 0.48950592 0.27234063 -0.014063669 -0.15237328
-0.057752173 -0.38529179 0.19301037 0.17602883 0.11573335 0.22422478 -1.427373 -0.47309116
0.22949544 0.27694544 0.32137552 0.11122076 0.30156505 -0.14978407 0.040752374 0.08897005
-0.06367376 0.16837431 -0.13734388 0.018210016 -0.034494195 0.051577177 3.0673892 -0.15324001
0.12295092 -0.16137859 0.58255744 0.9253643 -0.24106134 0.55131215 -0.75883716 0.0047468953
-0.6031707 0.041401844 -0.3389694 0.6190273 -0.57487595 0.5828873 0.82040226 -0.81917846

onnx::Gemm_22 f4 [20, 20]
00000000: 3b23 91bf 95ee ad3e d7b6 dd3c f702 a2bf
00000010: 1c9b 82be cc1f 8c3e 0f6d 373e 3533 d73e
00000020: be0e 123f c19c 22bf 0f5e 5dbe 4ee9 293f
00000030: d133 be3e d99a 303d 3bd4 cc3e 8335 b7be
00000040: c91a 2e3e fe87 8cbe 1717 143e b3de b93e
00000050: fa0a 1f3f 979f 013e cc72 263f ac28 903f
00000060: c42d cabf bddc af3e f008 20be 122a 05c0
00000070: 76df df3e 27e3 35bf eb83 9fbf c6e5 29bf
00000080: efcd 7e3e 80c5 bb3e 07fd 8cc0 9d0b 033f
00000090: 0a91 113f d048 a9be 3591 e73e f27e 323f
000000a0: 5c39 b93b e212 bcbe ad3b 3fbf 12ee 37bf
000000b0: 9209 5c3f d6b3 133e 5b13 7d3e 30cd 3c3f
000000c0: 9e54 d63e e548 0540 7baa cabe ac0b 983e
000000d0: 997c 1b3d d1f6 d5bd aadb 8c3f f545 933e
000000e0: a35c 25bd 6bc3 b03f 388f 28be a152 773d
000000f0: 4d73 423f dae3 063e 799a a93e d6d1 353f
00000100: 81b6 87bf d2b3 3bbe a8ca 3cbf 36e9 81bf
00000110: d05a 173f 45a6 15bf e09b e7be dce7 5f3d
00000120: 71dc fd3d 29e1 c33e b28d 09c0 97ba 823f
00000130: eea6 3b3f 8a03 533e d3b9 043f 99f3 323e
00000140: f866 bbbf 6ea9 0dbf 2daf a1be cb81 5abf
00000150: f5ae 843e a194 f33d 661c c13e 928f ba3f
00000160: 842c 303f 314b b63f 291d 0b3e eef6 c53e
00000170: c963 eb3c 6a97 63bf 956b ed3f ce25 af3e
00000180: fb64 08bd 768c 383f 6379 51bf 5bb6 73be
00000190: 2446 8c3f f421 a33f eb35 05bf fee6 7dbe
000001a0: c63e 143f ab0b 81be 637b 1dbf eed8 9bbe
000001b0: 5181 a9be b3d2 d7be 3990 7cbe f302 993f
000001c0: a3b8 babe f7d1 553f 9932 a2be f4bf 663f
000001d0: 8ec5 9e3e 121c febd 00c9 e43e f1c7 9e3d
000001e0: 0000 0080 0000 0000 0000 0000 0000 0080
000001f0: 0000 0080 0000 0000 0000 0000 0000 0000
00000200: 0000 0000 0000 0000 0000 0000 0000 0080
00000210: 0000 0000 0000 0080 0000 0000 0000 0080
00000220: 0000 0080 0000 0000 0000 0000 0000 0000
00000230: 8b64 083f 45cb 8e3f 9fd3 babf 9545 ecbe
00000240: 986d 233f 1471 f7bb 2ea7 acbe 4446 a6be
00000250: aae2 b5bf c498 393f 9ae2 853e 198a 1b3e
00000260: 32c3 b43d 430b 823f 160b 37bc 5f73 733f
00000270: f6da 05be 7996 043f 178a 7c3e 1b75 22bf
00000280: a4bc fe3d 363c 26be 2bc9 5ebd 0a99 e8bc
00000290: 0060 013e 83de e2bd fa86 1a3e a917 18be
000002a0: 9489 05be 6a77 93bd eab7 57be 1e32 a4bd
000002b0: e7ed c1bd 31f4 58be 9c08 81be 5314 dcbc
000002c0: 2fb7 b9bd b81a 3abe bf4f 81be 4151 e53d
000002d0: 567a 243d f7e2 9b3e 59f3 9abe bd79 a5be
000002e0: 5957 bb3c c28b c3bd 63b4 b3be bca1 863e
000002f0: 6cb4 9e3f a94b 8cbf 2412 aabe 41ef 8d3f
00000300: 49a4 02bf 8187 b13e a676 8a3d 4970 4dbd
00000310: d4f3 de3d ab24 01bf 71b9 403f f130 033f
00000320: 3aaf 30bf 8f6f 943e f96b 89be 3a02 27bf
00000330: bd5d d0bc 3cc7 78be a9f8 893e 5341 a43e
00000340: aab5 863f 220d 8ebf ecec d4be 7014 153f
00000350: b493 a3bf 0cfa 763e 30b0 9c3e 3ce9 4f3d
00000360: c1c4 c03d 653a 27bf 6234 dc3e d6ea 073f
00000370: 02ba c83f d370 3f3f e925 c53e ea9e 0c3f
00000380: 41f1 98bc 1625 703e c054 b7bd 8a68 a7bf
00000390: bdc2 0fbf 92d5 89bf 774d 4d3e 9edd 9abe
000003a0: 52d4 c83c ffb7 573f 00b8 cbbf fcc7 febe
000003b0: a3d6 58bd 73c7 2fbe c4c1 293f 7a23 ec3d
000003c0: 279c 3fbf d1be 653e f9d2 173e 09ff 1dbc
000003d0: 7311 3d3e f5d7 513f 43da eb3e 5f24 973f
000003e0: 4b99 b43f a6fa fe3e 4ac3 cc3f 302a 2abf
000003f0: b678 463f 968a 9fbe 83ad 8f3f 735d 32bf
-1.1338876 0.33971086 0.027064724 -1.2657155 -0.25508964 0.2736801 0.17912696 0.42031255
0.57053745 -0.6352044 -0.21617912 0.6637162 0.37148908 0.043116424 0.4000567 -0.35783014
0.17002405 -0.27447504 0.14461933 0.3630272 0.62126124 0.12658535 0.65018916 1.1262412
-1.5795217 0.34348097 -0.1562841 -2.0806928 0.43725175 -0.7104973 -1.2462133 -0.6636623
0.24883245 0.36674118 -4.405887 0.51189595 0.5686194 -0.33063364 0.45227972 0.69724953
0.0056525897 -0.36733156 -0.74700433 -0.7184764 0.85952103 0.1442407 0.24714415 0.7375059
0.41861433 2.0825741 -0.3958319 0.29696405 0.037960622 -0.10447467 1.1004536 0.2876431
-0.04037155 1.3809637 -0.16460884 0.060381535 0.75957185 0.13172856 0.33125666 0.7102331
-1.0602571 -0.18330315 -0.7374673 -1.0149295 0.59122944 -0.5845683 -0.4523611 0.054664478
0.123955615 0.3825772 -2.1492734 1.0213193 0.7330159 0.20606819 0.51846045 0.17475738
-1.4640799 -0.55336654 -0.3157896 -0.853543 0.25914732 0.11893583 0.3771698 1.4575064
0.68817925 1.4241697 0.13585342 0.38664955 0.028734105 -0.88902915 1.8548456 0.3420853
-0.033299427 0.72089326 -0.81825846 -0.23800032 1.0958905 1.2744737 -0.520354 -0.24795148
0.57908285 -0.25204214 -0.615164 -0.30438942 -0.33106473 -0.42152938 -0.24664392 1.1954025
-0.36468992 0.83523506 -0.31679228 0.9013665 0.31010097 -0.12407698 0.446846 0.077529795
-0.0 0.0 0.0 -0.0 -0.0 0.0 0.0 0.0
0.0 0.0 0.0 -0.0 0.0 -0.0 0.0 -0.0
-0.0 0.0 0.0 0.0 0.53278416 1.1155783 -1.4595832 -0.46146837
0.638391 -0.0075513218 -0.33721298 -0.32475483 -1.4209797 0.72498727 0.26149446 0.15189399
0.08826293 1.0159687 -0.011172077 0.9509792 -0.13071808 0.51792103 0.24662052 -0.6345994
0.12438324 -0.16233906 -0.054391067 -0.028393287 0.12634277 -0.11077597 0.15090552 -0.14852776
-0.13040763 -0.07200511 -0.21066251 -0.080173716 -0.094692044 -0.21186902 -0.2520188 -0.02686516
-0.090681426 -0.18174255 -0.25256154 0.111971386 0.04015573 0.30446598 -0.30263785 -0.3231944
0.022868799 -0.09548141 -0.35098562 0.2629527 1.239881 -1.096059 -0.33216965 1.108864
-0.5103193 0.34673694 0.06760912 -0.05015591 0.1088635 -0.50446576 0.7528296 0.51246554
-0.69017375 0.28991362 -0.2684019 -0.6523777 -0.025435323 -0.24294752 0.26947525 0.32081088
1.052419 -1.1097758 -0.41587007 0.5823431 -1.277945 0.24118823 0.3060317 0.05075954
0.09412528 -0.6532348 0.43008715 0.53092706 1.5681765 0.7478153 0.38505486 0.54929984
-0.018669726 0.23451647 -0.08951712 -1.3078778 -0.5615652 -1.0768301 0.20049082 -0.30247205
0.024515305 0.8426513 -1.5915527 -0.4976195 -0.05293907 -0.17165928 0.6631129 0.11530204
-0.74847645 0.22436072 0.14826573 -0.009643325 0.18463688 0.8197015 0.46064958 1.1807975
1.4109281 0.49800605 1.5997097 -0.66470623 0.7752794 -0.3116042 1.1224827 -0.6967384
