provided/nets/lhc_2_20-1_no_softmax.onnx (onnx, 4259 bytes, 6 tensors)

0.weight f4 [20, 16]
000000 13 d2 a6 3e dc 4f 31 3e 75 0f 06 3f f8 58 49 3f
       0.3258215 0.1731562 0.52367336 0.7865138
000010 4c d3 3b 3f 71 52 62 be 4c 16 2f bd ab a4 64 bc
       0.7336929 -0.22101761 -0.042745873 -0.0139552755
000020 6f b9 b7 bd 52 6d 13 bf d6 7f 68 3e 59 6f 0b bd
       -0.089709155 -0.57588685 0.22705016 -0.034041736
000030 d2 68 46 be 17 5e 8f bd 4a cf 0c c0 a0 18 1f 3e
       -0.19375923 -0.07000368 -2.200152 0.15536737
000040 9e a7 5a be 59 e2 33 3e 40 54 46 3f 1b 16 02 bf
       -0.21353003 0.17566814 0.77472305 -0.5081498
000050 41 16 91 3e d1 c4 6d be fe 61 2b bb 2b 35 5f 3e
       0.2833729 -0.23219611 -0.0026150937 0.21797626
000060 92 11 fd 3c 46 c8 cf be 33 bb 19 be c8 cb 07 bf
       0.030892167 -0.40582484 -0.15012817 -0.5304532
000070 f0 a2 a0 be 2a b5 5e 3c f4 f1 b0 bf b9 f6 d1 3e
       -0.3137431 0.013592998 -1.3823838 0.41008547
000080 30 5b 06 3f 1c 22 2a 3f 9d 68 8b bf 2e 29 81 bf
       0.5248289 0.66458297 -1.08913 -1.0090692
000090 8a 62 29 bf 3f 3c 77 3d 6e 63 17 3e 13 5e bb bd
       -0.66165984 0.06036019 0.14784023 -0.091488026
0000a0 40 fa 7d 3d b0 1f fc 3c 8c eb 2b 3e 53 7c 56 be
       0.062006235 0.030776829 0.16789073 -0.20945863
0000b0 16 33 9c 3d 76 eb db be b7 c4 4f 3f 94 83 3f 3f
       0.07626931 -0.4295308 0.8115954 0.7481015
0000c0 89 81 58 3f ea ab 50 3f 3f 5d b6 3e 65 d0 6f be
       0.84572655 0.8151232 0.35618016 -0.2341934
0000d0 cb 9f d5 3e 28 de 7c 3d bc 2d 08 3e 5b af cd be
       0.41723475 0.061735302 0.13298696 -0.40172848
0000e0 16 ad 14 be d6 09 8f bd 01 08 3d 3f e3 17 64 bc
       -0.14519152 -0.06984298 0.7384034 -0.013921711
0000f0 60 e7 0d 3f 90 4e a7 bd a0 8f 45 bf 0f 11 0a bf
       0.55431175 -0.081692815 -0.7717228 -0.5393228
000100 bf 6f 05 3d fd aa 57 be f3 9a 7f 3f 67 58 ad 3f
       0.032577273 -0.2106132 0.9984581 1.3542603
000110 f5 8a 1e 3f a4 ac 32 3f 78 46 47 bd ed f5 13 bf
       0.6193078 0.6979468 -0.04865119 -0.5779713
000120 1e df 11 be 87 bb 84 be 88 b1 b0 be 04 07 ef 3e
       -0.14245269 -0.25924322 -0.34510446 0.4668504
000130 c5 54 ed be ac 3f 8c 3e 77 4e 64 be 20 c9 21 be
       -0.46353737 0.27392328 -0.22295557 -0.1579938
000140 be c7 72 3b 46 97 b5 3d 3f 83 17 bf 98 df 9d be
       0.0037045325 0.08866744 -0.5918464 -0.3083465
000150 a5 13 3d bf fd 78 02 3c cd e6 f4 be e8 80 d2 3d
       -0.738581 0.007963416 -0.47832337 0.10278493
000160 59 70 a5 be 66 f8 23 3f f0 fb 42 3e 98 85 4a be
       -0.32312277 0.640509 0.19041419 -0.19777524
000170 2c c7 5a 3e 27 38 1d be a0 c3 08 3f a3 1e 7c 3f
       0.2136504 -0.15353452 0.534235 0.9848425
000180 e6 13 29 be 19 9f 21 3d ae e9 8f bf 85 68 44 bf
       -0.16511497 0.039458368 -1.1243188 -0.76721984
000190 e0 88 37 bf fc 2e 4f 3e 49 d6 e1 3c 87 90 8e 3e
       -0.7169323 0.20232767 0.027568 0.2784464
0001a0 db 5f a4 be d6 38 18 3f aa 7f 5f be 19 ed 21 bf
       -0.32104382 0.59461725 -0.21826044 -0.6325241
0001b0 da 29 13 be 3c 6d 4d be 24 b7 9f 3e 61 03 69 3f
       -0.14371434 -0.20061201 0.31194413 0.9102078
0001c0 64 4f 90 3e a2 0f 81 3e 48 c0 cd 3e 3d 19 a7 bd
       0.2818557 0.2520724 0.4018576 -0.08159111
0001d0 09 5e ac 3e 79 d0 11 bd 00 8a 22 bb e5 38 03 be
       0.33665493 -0.035599206 -0.0024801493 -0.12814672
0001e0 03 44 02 3e 34 19 36 3e 07 3f 0b be 7d 8e 89 bd
       0.12721257 0.17783052 -0.13598262 -0.067166306
0001f0 7c a4 be 3d 9e 2c 20 be 51 1d 21 40 1e 32 2d bc
       0.09308717 -0.1564202 2.5174143 -0.010571031
000200 6d f3 88 3e 08 03 5e bc ab 8c 36 bf 69 94 8e bf
       0.2674822 -0.013550527 -0.7130839 -1.1139041
000210 a6 d1 8a be fd 0a 9f be 9f 33 8a bd 3b 24 b5 3c
       -0.27113074 -0.3106307 -0.06748127 0.022112003
000220 c5 83 17 3d 71 a7 18 3e 43 4e 24 bd 62 10 7f 3d
       0.0369909 0.14907624 -0.0401137 0.062271483
000230 bd dc 3d 3d e5 d7 80 bc 73 79 1a 40 49 8f 0c bd
       0.04635309 -0.015727947 2.4136627 -0.034316335
000240 26 c6 fd bd 57 f1 52 bb 9e 54 5d 3f 31 3b 52 40
       -0.123913094 -0.0032187307 0.8645724 3.2848628
000250 52 7f 9a 3e b0 c0 72 3d 69 a5 1e 3e 8f f6 a0 be
       0.30175263 0.059265792 0.15492786 -0.3143811
000260 92 8c b4 3c 81 aa 4e 3c 61 27 91 be 6c 0c 26 3c
       0.022039685 0.0126138935 -0.28350356 0.010134798
000270 21 b7 c3 bd 26 b8 0a 3e 41 2f b6 3e d8 92 f7 bc
       -0.095564134 0.1354681 0.35582927 -0.030221388
000280 6d 9c ad 3e 36 3b d5 3e a3 b4 60 bf ea d5 92 3d
       0.33908406 0.41646737 -0.8777563 0.07169707
000290 af 23 e1 bd ec b9 9f 3e 0f a2 69 bd 6e 24 bb 3e
       -0.10993134 0.31196535 -0.057039317 0.3655123
0002a0 6d 7d 22 be 22 e0 50 3f d1 bc 90 be 24 8a c7 bf
       -0.15868159 0.81592 -0.28269055 -1.5589032
0002b0 20 d8 27 be 40 d6 10 be ef 6e 29 3f 90 60 eb bb
       -0.16391039 -0.1414423 0.66184896 -0.007183142
0002c0 c4 45 0f bf 26 25 76 be fd 78 f1 3e fc 71 85 bf
       -0.5596583 -0.24037609 0.4716262 -1.042541
0002d0 f4 b1 ad 3e 04 fe e5 bd 0d 32 61 3e 1b b3 0a bf
       0.3392483 -0.1123009 0.21991749 -0.54179543
0002e0 d8 c6 3e bd d2 8d 37 3e 20 60 29 3e 5f 54 34 3f
       -0.04657635 0.17925194 0.16540575 0.7044124
0002f0 56 94 49 be f0 dd 1a be 08 4f b5 3f bf bf 59 bf
       -0.19685492 -0.15123725 1.4164743 -0.85058206
000300 ac 0c b0 be 21 5d 08 be 8c 42 ba be 0d 47 90 3e
       -0.34384668 -0.13316776 -0.36378896 0.28179207
000310 ca 46 a6 3d 06 97 83 bc f5 03 9e 3e 14 a2 89 bd
       0.08118971 -0.016063225 0.30862394 -0.06720367
000320 e2 03 de 3e 09 c1 06 3f cc 26 67 3e 21 12 b3 be
       0.43362337 0.526383 0.22573394 -0.3497477
000330 1a 9a e9 3e 66 97 de be d8 9b 24 3f 6a 74 a3 3f
       0.45625383 -0.43474883 0.643003 1.2769902
000340 a6 0e 5d 3e f2 72 98 3c fe de 80 3f b0 56 03 3f
       0.21587619 0.018609498 1.0068052 0.5130415
000350 60 bb 07 3f 8f f9 8d 3e f6 ec d3 bc 3e 57 13 be
       0.53020287 0.2772946 -0.025869828 -0.14388749
000360 95 74 8e bd 13 da a7 be cc 54 6e 3e 5f ed 2f 3e
       -0.0695583 -0.32783565 0.23274535 0.17180394
000370 dc 13 34 3e 93 3a 5f 3e f1 18 ae bf 69 8f f3 be
       0.17585701 0.21799688 -1.3601362 -0.4757035
000380 98 03 23 3e da 9f 5f 3e f8 b5 56 3e 28 f6 11 bd
       0.1591934 0.21838322 0.20967853 -0.035635144
000390 07 b4 4b 3e 11 41 44 be b2 de 29 3d ad 31 e7 3d
       0.19892894 -0.19165446 0.041472144 0.11288772
0003a0 25 ee 80 bd e8 cd 13 3e 0b 68 02 be 9f 71 99 3d
       -0.062954225 0.14434016 -0.12735002 0.07492375
0003b0 28 9c 90 bd f3 5f b1 3d 20 51 2f 40 07 cf 35 be
       -0.070610344 0.08660879 2.7393265 -0.17754756
0003c0 41 7a f6 3d 6a d6 ec bd 31 fb 14 3f f7 31 60 3f
       0.12035037 -0.11564334 0.5819579 0.8757624
0003d0 35 a3 72 be a9 7c 05 3f 4b 76 47 bf ed 42 f0 3c
       -0.23695071 0.5214334 -0.77914876 0.029328788
0003e0 89 9c 1f bf 15 01 6c 3d b6 db b1 be 81 16 1c 3f
       -0.6234823 0.05761822 -0.3473794 0.6097184
0003f0 6f 37 11 bf ab c8 14 3f 23 4f 59 3f 10 d4 55 bf
       -0.5672521 0.58118695 0.8488638 -0.83526707

0.bias f4 [20]
000000 ae 63 44 3f a2 35 98 3f a5 54 4b 3c 05 01 0e 3f
       0.767146 1.1891367 0.012410318 0.55470306
000010 ae 9f 99 3e 5e 97 65 be 26 ca 2a be d4 8d 17 bf
       0.30004638 -0.22421023 -0.16678676 -0.5920079
000020 c4 7a 16 3f cc ce 6c bf f7 b2 e3 bc d1 05 66 3f
       0.58781075 -0.92503047 -0.027795298 0.89852625
000030 35 4f 21 bf 46 b0 6e 3f 63 1b 3b be 74 71 87 bf
       -0.63011485 0.9323772 -0.18272166 -1.0581498
000040 63 5f b5 3e e5 c1 09 bf 7b 16 90 3f 29 f6 29 3e
       0.35424337 -0.53811485 1.125686 0.16597809

2.weight f4 [20, 20]
000000 6a 68 92 bf 26 fc a6 3e b2 96 bc 3d 74 1d a5 bf
       -1.1438115 0.3261425 0.0920843 -1.2899613
000010 bc fe 83 be 8a 3b 8d 3e 3a 8c ba 3d 35 33 d7 3e
       -0.25780284 0.27584487 0.09108777 0.42031255
000020 90 af 08 3f 38 bf 1b bf e8 46 6f be d3 aa 2a 3f
       0.5339289 -0.6083865 -0.23366892 0.6666691
000030 6b 67 c0 3e d9 ae ab 3d 10 54 83 3e 4a 75 d9 be
       0.37578902 0.08382959 0.25650072 -0.42472297
000040 62 e1 1b 3e fe 87 8c be 76 1b 1f 3e fa b2 99 3e
       0.15222695 -0.27447504 0.1553782 0.3001936
000050 a4 79 17 3f 6f 05 34 3e c3 82 43 3f 41 9c 9b 3f
       0.59169984 0.17580198 0.763714 1.215706
000060 da 57 e9 bf 08 4f 95 3e 59 32 a5 bd 12 2a 05 c0
       -1.8229935 0.2916186 -0.08066244 -2.0806928
000070 61 ba 2e 3f 0f 75 3d bf 5a e8 98 bf ce cd 03 bf
       0.6825314 -0.7400674 -1.1945908 -0.5148591
000080 30 66 94 3e dd 7c e2 3e 46 d2 8f c0 81 a8 e7 3e
       0.28984213 0.44235888 -4.494418 0.45245746
000090 f2 84 11 3f d0 48 a9 be 28 6a 11 3f 84 4b 29 3f
       0.56843483 -0.33063364 0.56802607 0.6613085
0000a0 37 46 38 be 02 b9 16 bf c4 99 4a bf 0e 5c 28 bf
       -0.17995535 -0.5887605 -0.7914088 -0.65765464
0000b0 44 8b 3a 3f f6 fc 37 3e 34 29 8d 3e 30 cd 3c 3f
       0.7286875 0.1796759 0.27570498 0.7375059
0000c0 8c 31 a7 3e 16 ae f0 3f 8f 00 c6 be 24 9d 4b 3e
       0.3265499 1.8803127 -0.386723 0.19884163
0000d0 53 45 b7 bd a0 bc 89 be 4d 1e 65 3f 36 43 87 3e
       -0.089487694 -0.26901722 0.8949936 0.26418465
0000e0 3a f0 1c be 6b c3 b0 3f 0b ba 8f be 1f 1b 0a 3b
       -0.15326014 1.3809637 -0.28071627 0.0021073294
0000f0 dd 9e 3f 3f 07 4b 21 3e 01 32 a1 3e 4d 80 22 3f
       0.7485178 0.15751277 0.31483462 0.6347702
000100 6d e1 8a bf a0 88 9c bd da a5 19 bf 36 e9 81 bf
       -1.0850044 -0.07643247 -0.60018694 -1.0149295
000110 79 35 24 3f d0 cc e2 be 2c 62 0a bf e9 a4 1e 3d
       0.6414409 -0.44296885 -0.5405605 0.03873149
000120 b8 1a 2a 3e ee d5 f1 3e 07 01 08 c0 ac 6d 8d 3f
       0.16611755 0.47233528 -2.1250627 1.1049094
000130 c0 74 49 3f 8a 03 53 3e df af 07 3f 5f f7 82 3e
       0.7869377 0.20606819 0.53002733 0.25579354
000140 a9 16 ac bf b6 5e 32 bf a3 d4 ce be 5c fd 80 bf
       -1.3444415 -0.6967577 -0.40396604 -1.0077319
000150 b4 df 87 3e a0 c0 a0 3e d3 5e dc 3e 92 8f ba 3f
       0.2653786 0.3139696 0.43041095 1.4575064
000160 88 3c fe 3e 96 0c ba 3f 11 5f e4 3d 29 2f 45 3e
       0.49655557 1.4535091 0.11150945 0.19256271
000170 49 51 f8 bc 3b 8d 75 bf 71 f2 c7 3f 7d d3 a3 3e
       -0.030312197 -0.95918626 1.5620862 0.3199729
000180 ea d0 1c 3c 76 8c 38 3f 15 bd 7f bf be fd 6c be
       0.009571293 0.72089326 -0.9989789 -0.2314367
000190 6e 94 86 3f 03 8b 9a 3f 2c 2c f8 be 7c e3 82 be
       1.0514047 1.2073673 -0.484712 -0.25564182
0001a0 c0 64 18 3f 46 87 87 be 42 8a 29 bf ee d8 9b be
       0.5952873 -0.26470393 -0.6622659 -0.30438942
0001b0 0d 16 9f be b0 a9 cf be 8a 79 5a be 8e 56 a0 3f
       -0.3107151 -0.4055915 -0.21335426 1.2526414
0001c0 7e b4 ad be 8f cb 4d 3f 59 f4 70 be 3f 61 63 3f
       -0.33926767 0.8038873 -0.23530711 0.8882026
0001d0 14 42 a1 3e 12 1c fe bd 01 15 02 3f fe 72 04 3e
       0.31495726 -0.12407698 0.508133 0.12934491
0001e0 69 a4 2c bf 5c bf 6e 3d 67 df 99 3e 23 89 8b bd
       -0.6743837 0.058287963 0.30053255 -0.06813266
0001f0 08 cd 8c bc 56 b8 cf 3e 8a ae 45 3e b3 bb 25 3f
       -0.01718761 0.40570325 0.19304863 0.6473953
000200 fb 56 82 3f 98 3d 64 3f d9 fa 4a 3f e1 8d 90 be
       1.0182794 0.89156485 0.79289013 -0.28233245
000210 d4 30 30 3f 8a f7 23 be 51 e4 e6 3e c1 5d e9 be
       0.68824506 -0.16012397 0.45096067 -0.4557934
000220 90 dd b3 be bc 5a ea 3e 8b 16 82 3a 2e c5 6a 3e
       -0.35129976 0.4577235 0.0009924931 0.2292678
000230 ff bc 0a 3f 23 05 85 3f 61 b4 c1 bf fe 0b f5 be
       0.54194635 1.0392193 -1.5133172 -0.47860712
000240 a1 89 23 3f d1 86 ef bc 3a 03 a4 be 44 46 a6 be
       0.6388188 -0.02923909 -0.32033712 -0.32475483
000250 df 30 c3 bf 34 4d 3c 3f 01 3c 64 3e 7a 08 39 3e
       -1.5249289 0.735553 0.22288515 0.1806964
000260 76 8d d6 3c f8 42 6e 3f f4 d6 5f 3d 61 d4 6a 3f
       0.0261905 0.93070936 0.054648355 0.91730314
000270 9c 33 5a bd 79 96 04 3f 4f 46 77 3e 3f 2d 0b bf
       -0.053271875 0.51792103 0.24147914 -0.54365915
000280 71 2e e3 3d 8d b7 31 be 36 83 90 bd 03 0a 09 bd
       0.11092842 -0.17355175 -0.070562765 -0.033456814
000290 00 60 01 3e 82 1b ff bd 45 8f 0c 3e a9 17 18 be
       0.12634277 -0.124564186 0.13726528 -0.14852776
0002a0 22 24 da bd 6a 77 93 bd 5a fc 57 be 1e 32 a4 bd
       -0.10651423 -0.07200511 -0.21092358 -0.080173716
0002b0 87 ed c1 bd 1f 1c 57 be 9c 08 81 be 53 14 dc bc
       -0.09469133 -0.21006821 -0.2520188 -0.02686516
0002c0 50 1d 83 bd b8 1a 3a be 77 f6 82 be 97 27 c2 3d
       -0.06402075 -0.18174255 -0.25578663 0.094802074
0002d0 18 92 91 3d e2 b3 78 3e 04 68 21 be 71 88 bd be
       0.07107943 0.2428737 -0.15762335 -0.3701816
0002e0 23 73 64 3d 32 26 80 bd 71 f4 a8 be bc a1 86 3e
       0.055773865 -0.06257285 -0.32998994 0.2629527
0002f0 ac d7 9a 3f 0e f3 7f bf 0a 6b a8 be df d7 93 3f
       1.2097068 -0.9998025 -0.32894164 1.1550254
000300 92 c5 22 bf ba d9 b7 3e 3e 4f d6 bc 1d 89 fa bc
       -0.6358272 0.359083 -0.026160832 -0.030582959
000310 7a 09 d1 3d ab 24 01 bf 84 74 56 3f 9d 3c 06 3f
       0.10206886 -0.50446576 0.8377154 0.5243624
000320 66 66 29 bf af c3 a4 3e ac c1 47 be de 84 1a bf
       -0.6617187 0.32180545 -0.19507474 -0.6035899
000330 1b 65 5e 3c 35 b5 96 be 08 55 86 3e 53 41 a4 3e
       0.01357391 -0.29435125 0.2623675 0.32081088
000340 b5 f2 8c 3f e6 9a 82 bf 3b 0d c7 be 0d c4 22 3f
       1.1011568 -1.0203521 -0.38877282 0.635804
000350 fd 6d ab bf be f1 86 3e 54 85 8d 3e 49 cc 4e 3d
       -1.3392941 0.2635631 0.27640784 0.05048779
000360 82 02 18 3e 65 3a 27 bf 3d b1 ef 3e 7f b9 fb 3e
       0.14844707 -0.6532348 0.4681491 0.4916496
000370 51 48 d3 3f 7b 0b 6a 3f 68 ee fa 3e 00 98 29 3f
       1.6506444 0.9142377 0.49010015 0.6624756
000380 51 61 85 3d b7 aa 42 3e 7e bc 34 bd 8a 68 a7 bf
       0.06512702 0.19010435 -0.044125073 -1.3078778
000390 02 61 c6 be 56 30 71 bf f7 90 80 3e cc bc 4b be
       -0.38745886 -0.9421438 0.251106 -0.19896239
0003a0 3d 60 d7 3d 9b 63 73 3f 1b 0e a5 bf 02 79 05 bf
       0.10516403 0.9507386 -1.289493 -0.5213777
0003b0 2c 13 b5 bc 73 c7 2f be 7c 63 36 3f 94 fb a7 3d
       -0.022103868 -0.17165928 0.7124555 0.082022816
0003c0 a0 f2 3c bf c0 4b 20 3d 74 c9 d0 3d 83 65 9a bd
       -0.73807716 0.03913474 0.10194674 -0.07538893
0003d0 c9 fe d8 3d 49 3b 52 3f ff 60 e3 3e 5f 24 97 3f
       0.105954714 0.8212171 0.4440994 1.1807975
0003e0 9b 85 9e 3f e4 4b ef 3e 87 fe be 3f d7 d0 3f bf
       1.2384523 0.46737587 1.4921426 -0.7492804
0003f0 88 ec 22 3f fa 8a e2 be c7 cb 5e 3f 76 03 2d bf
       0.6364217 -0.44246656 0.8702969 -0.67583406

2.bias f4 [20]
000000 50 cf 64 3f ea 6c 66 be 36 0f 7a be 1b 77 8a be
       0.89378834 -0.22502485 -0.24419865 -0.27043995
000010 ae 6d e8 be c1 52 82 3f 8e 88 16 3c 51 5b 14 3f
       -0.4539618 1.0181504 0.009187831 0.5795184
000020 a8 de 8e be e9 c1 45 3f a3 c9 54 3f 1f 50 53 3f
       -0.27904248 0.7724901 0.83120173 0.8254413
000030 07 f2 9f 3e 88 4e e1 3e 8a 0d 50 3f 31 cf 34 bf
       0.3123934 0.44005227 0.8127066 -0.7062865
000040 ef fc 5d 3f cf f3 1c 3e 90 a3 71 3f 09 c1 2a 3f
       0.8671407 0.1532738 0.943902 0.667008

4.weight f4 [5, 20]
000000 97 af bc bd 01 88 99 3e 06 9b 0d 3f 35 78 73 3e
       -0.092131786 0.29986575 0.5531467 0.23776324
000010 e2 d5 3d 3f 41 27 f4 bf c8 4b a5 3e be 5b ff be
       0.74154484 -1.9074479 0.3228438 -0.4987468
000020 86 60 aa bd d9 39 33 be 2a e1 a4 3e 91 8d d2 3e
       -0.08319192 -0.17502536 0.32203037 0.41123632
000030 ad c1 2c 3f 33 89 a3 3e 46 26 d1 3e e1 df 6f 3e
       0.67483026 0.31940612 0.40849513 0.23425247
000040 99 1a a8 3e f4 7a b2 bf 34 41 72 bd 99 2a 41 be
       0.32832792 -1.3943772 -0.059144214 -0.18863906
000050 81 4b 30 3f 25 35 b9 bf 36 f8 1d c0 7e fc 74 bf
       0.6886521 -1.4469343 -2.4682746 -0.9569777
000060 30 dd 55 c0 4a 16 78 3e db 04 00 bf 50 6c b0 bd
       -3.3416252 0.24227253 -0.5000741 -0.08614409
000070 27 28 d2 3d 79 f0 e0 3e 2d 03 fd 3e d5 1d ad be
       0.10261565 0.43933466 0.49416485 -0.33811823
000080 13 7d 62 be 4b b9 5d 3f d3 ca dd 3d 6d c1 25 c0
       -0.22118025 0.8661086 0.10829701 -2.5899308
000090 1a 90 d6 3e 3a ca a6 bc 17 1c 8a 3d d3 3e 8d 3d
       0.41906816 -0.020360101 0.06743639 0.068967484
0000a0 8c 08 ad bf 68 9e 46 c0 d2 77 ff 3e db 26 b3 bf
       -1.3518233 -3.1034184 0.49896103 -1.3996233
0000b0 29 bf d3 3e 3d 4e 0f 3e 8d 75 8b bc c1 d1 ec 3e
       0.4135678 0.1399469 -0.017023826 0.4625378
0000c0 c2 5b 8a bc 28 73 ae bf 47 d3 c6 bf dc bc 41 3f
       -0.016889457 -1.3628893 -1.5533227 0.756788
0000d0 89 0b 55 bd 9a 53 b4 bf 28 a4 2f 3f e9 64 3d 3f
       -0.052012954 -1.4088013 0.6860986 0.739821
0000e0 57 b6 64 3e 25 99 88 3d 28 e3 9f bf ae 04 25 40
       0.22335182 0.06669835 -1.2491198 2.5784106
0000f0 f9 9a ac 3e 33 00 20 c0 4f 09 59 be 33 3f 19 c0
       0.33711985 -2.5000122 -0.21194957 -2.3944824
000100 d7 a5 13 bf 9c 62 4e 3f 73 6a 8c 3e d7 dc e7 3e
       -0.57674927 0.80619216 0.27424964 0.45285675
000110 d9 74 91 3d fd ba 46 3f cb cc 98 3e 4d c8 42 c0
       0.07102365 0.7762907 0.29843745 -3.0434754
000120 96 84 ae 3e 77 77 9c bf 9d 88 32 c0 e7 f9 b7 be
       0.3408553 -1.2223958 -2.7895882 -0.35932848
000130 26 46 51 c0 11 89 18 3f b4 83 28 3f 76 18 fc bf
       -3.2699065 0.59584147 0.65825963 -1.9694965
000140 ea 7a 58 3e 73 46 f5 3e 19 7a 00 c1 2a de d8 3e
       0.21140638 0.4790531 -8.029809 0.42356998
000150 4c 45 98 c0 e9 55 1e bf 75 7b ff be 06 84 06 c0
       -4.758459 -0.6184984 -0.49898878 -2.101808
000160 ac 1b b5 bc f6 0e e5 bd 40 6f a2 be ff f7 91 3e
       -0.022107922 -0.11184494 -0.31725502 0.28509519
000170 4c c6 6c bf c6 9d 66 3e 27 7a b2 3e 8a 8d e7 3e
       -0.92490077 0.22521123 0.3485882 0.45225173
000180 2c 76 c9 3d a7 07 4c bc 99 da e4 bd 17 13 a6 3e
       0.098369926 -0.012452996 -0.11174507 0.3243644

4.bias f4 [5]
000000 05 fb d2 3c 35 4d 2e 3f ee f5 38 bf 41 43 51 3f
       0.025754461 0.6808656 -0.7225026 0.81743246
000010 cc 67 3a bf
       -0.7281463
